model.npz (npz, 525926 bytes, 4 tensors)

W1 f8 [16, 4096]
0	0x3fb6df8eedf350aa	0.08934872922265194
1	0x3fbfd83fee358121	0.12439345899247602
2	0x3fb504d7b4bf8b50	0.08210514223860099
3	0x3f9227b6324854b9	0.017729613131525854
4	0x3fa4f5855b9ebac3	0.04093567603500994
5	0x3fa15d52428d8131	0.03391511022960215
6	0x3fa05fee7766c416	0.03198189933335287
7	0x3fad07e28b66910a	0.056700782314949974
8	0x3f915d3d17c59bc1	0.016957239700243102
9	0x3fa11820b21edf90	0.03338720487903324
10	0x3fa7224bae299e47	0.04518352986343337
11	0xbfb02a9b0a8d1b95	-0.06315011031720837
12	0xbfc2e84f383c8b8e	-0.14771452184603756
13	0xbfcfef77a694fc1b	-0.24949546464810698
14	0xbfcfb4de056813b5	-0.24770713104240163
15	0xbfcd5b679d34943c	-0.22935195137066156
16	0xbfc15f04330e8730	-0.13571217053418527
17	0xbfbf3d48e85a942a	-0.12202888176632656
18	0xbfb650cc00f69e04	-0.08717036269683126
19	0x3f780395e0a3fce8	0.0058627943601543345
20	0xbfaec64b9111b18e	-0.06010662217963435
21	0xbfa7e7af967908d5	-0.04668949806047499
22	0xbf728b26c42deb6e	-0.004527236395797425
23	0x3f92a03fa54922c2	0.018189424956548413
24	0x3f83b1b12ee5cf60	0.009616264575676048
25	0xbfbbfd2165dde22b	-0.10933121430378694
26	0xbfb8e44dbe5cd5a2	-0.09723363778615249
27	0xbfc0c463792326d4	-0.1309933034411218
28	0xbfa721cbd8e41ade	-0.04517972014041559
29	0xbfabfea2fc31d07d	-0.05467709854647838
30	0xbfc3614d30bc139f	-0.15140690688727163
31	0xbfc4762c449343c3	-0.1598563513603307
32	0xbfc454506eea4442	-0.1588230649545342
33	0xbfc5ff323ed99cae	-0.17185047215318633
34	0xbfb4465718ed6273	-0.07919830664230591
35	0xbfbaa71ea7dc3d85	-0.10411254499580565
36	0xbfc1eb900ccf5813	-0.14000130296216237
37	0xbfbf0b9855f69dda	-0.12127067660059457
38	0xbf811b150d27c4c4	-0.008352436508149437
39	0xbfba26dfffef3fac	-0.10215568540956949
40	0xbfbca33b303df40e	-0.11186571052344638
41	0xbfaa1bc6e54ac49c	-0.050993171205285764
42	0xbfc20f70b4db1604	-0.1410961993298515
43	0xbfc1e70c9246873e	-0.13986355917318777
44	0xbfad9a1667f3fca2	-0.05781621951063555
45	0x3faf52d01387021c	0.061178686507904895
46	0x3fb4aa58d7c7b84d	0.08072428958959783
47	0x3fad9f278cbe576e	0.05785487740574423
48	0x3faae7029f13adb8	0.05254371826034848
49	0xbf8cdca218bb4a67	-0.014092699413059863
50	0x3fae99aa664fc987	0.05976612566873301
51	0x3fba2842ec7d61dd	0.1021768405311216
52	0x3f94b4bfd9054de9	0.02022075426186901
53	0x3f739230c0424bc5	0.004778089936865852
54	0x3f7e1c1d05f9ec02	0.007351029751244022
55	0xbf8e7b9d04a3e7b6	-0.014884211258038831
56	0xbf6cc201cef38e3a	-0.0035104785271060897
57	0xbf6372f5299b631c	-0.0023741520243273483
58	0xbf755872e8897a2b	-0.005211304531796783
59	0x3fb1fd07845ae51c	0.07026717168163937
60	0x3fb41f05faa3a699	0.0785983788406618
61	0x3fbc3959a70e274c	0.11025009468553754
62	0x3fa2133a4a10aebc	0.0353029456531124
63	0x3fabf8ec5d6fc241	0.054633509069280446
64	0x3f9a0d534721b51d	0.02544145700124033
65	0x3fb67264aef3fa42	0.08768300315203084
66	0x3faa3e0a25ed3e28	0.05125457489941382
67	0xbf303897da133bea	-0.00024751384087279163
68	0x3f74b42483d8e98b	0.0050546099060348
69	0xbfb91630097d4807	-0.09799480659174274
70	0xbfbe201d364cbe6a	-0.11767752242735133
71	0xbf9d546ac47ad15e	-0.02864233803002613
72	0xbfaf5704a5f39414	-0.06121077085280305
73	0xbfa065f6e5587d7d	-0.032027926918313
74	0x3f86ee7fe9a07f2c	0.01119708949778405
75	0xbfbae544d1e716f8	-0.10506086468293663
76	0xbfc8141d4ab23ac2	-0.18811384341502985
77	0xbfca167a9ab1ef28	-0.20381100228757387
78	0xbfc03718d58a4e6b	-0.12668142725725615
79	0xbfc02c90292e64b1	-0.12635995875169706
80	0xbfc38a34fedf3361	-0.15265524334827332
81	0xbfbff05cffbdf653	-0.12476140254690309
82	0x3fab84431afbdbab	0.05374345497505514
83	0x3fa65716e7d34d8e	0.04363318996334008
84	0xbfb2a3601c5cca11	-0.07280541126673536
85	0x3f912a14e9be61bd	0.016762091414052927
86	0x3fa603430fd884d6	0.042993636783884945
87	0x3fb14c06ff65d034	0.06756633506103144
88	0xbfb003b7b7ed9404	-0.06255672684126529
89	0xbfc13480acbb8422	-0.1344147532863938
90	0xbfb4d75f1d83469e	-0.08141130896117452
91	0x3f9ad1222a8d159d	0.02618840584479686
92	0x3fa9808bf1284750	0.04980885809722102
93	0xbfa44e4ac430a184	-0.03965982098481205
94	0xbfbc5934227725f5	-0.11073613969269742
95	0xbfc843e7ae7f7c96	-0.1895722963372221
96	0xbfcbec139e4e96ca	-0.21814198713143745
97	0xbfca5528aea8534b	-0.20572384384345307
98	0xbfc6424f15c9fd18	-0.17389858783642675
99	0xbfc3634961209369	-0.15146748774091215
100	0xbfca44598d42dd61	-0.20521087071913782
101	0xbf940abd84559617	-0.019572220994993197
102	0x3f9e4c580aeab6e0	0.029588103929817033
103	0xbfbdb1ded51f8d69	-0.11599533751682646
104	0xbfc3ccf3d78bf51e	-0.1546921541666188
105	0xbf7f350e524e4f7c	-0.007618957465542194
106	0xbf81db12eea93490	-0.008718631656984749
107	0xbfbde96b16a86f0e	-0.11684293082401728
108	0xbfae571ac72dee5c	-0.059258305372136916
109	0xbfa4c0f30455c6aa	-0.04053458621900792
110	0xbf60e5209c5819c8	-0.0020623814514266516
111	0x3fb14241ebf6c4df	0.06741725931967178
112	0xbf99237c1cd7629f	-0.02454942632707235
113	0xbf9650545e45dccf	-0.02179080796619531
114	0x3f9b9c949902056b	0.02696449455152587
115	0x3fb4ab15b5774f82	0.08073554687808662
116	0x3fb9ee859b38ff32	0.10129580535521823
117	0x3fb8a7d04aaca7a9	0.09631063292604715
118	0x3fb9cee9f0c9f900	0.1008135044921552
119	0x3fb6fb281d98ec3e	0.08976984713164968
120	0x3fb82d843930a0c6	0.09444452663649647
121	0x3fba9ff72449d268	0.10400337825724082
122	0x3fb1941e7c9867b6	0.06866636793020472
123	0x3fbf0e73322fdcd8	0.1213142392660872
124	0x3fb43686f47c7cfb	0.07895701855567332
125	0x3fba80804480ee95	0.10352327034427795
126	0x3fb32f0061f33212	0.07493593589169503
127	0x3fac4f3385b385b8	0.05529175765128563
128	0xbf78b02a0ee3e529	-0.0060273783585611885
129	0x3fb53d1d808c30e8	0.08296379459733638
130	0x3fa730110e4e859f	0.04528859424250275
131	0xbfa47aebb804ce52	-0.04000031110117831
132	0xbfb4d473a0f1b4e6	-0.08136675528813306
133	0xbfc2da3acb6e4a8c	-0.1472848408999038
134	0xbfbb0c8d1a66eb91	-0.10566026587086542
135	0xbfb392f4f05bd793	-0.07646113269933456
136	0xbfb2a108340c1282	-0.07276965399439386
137	0xbfbeefc70dabaabe	-0.12084621509317636
138	0xbfb3919ce2b096df	-0.07644062551898
139	0xbfb4c8a081e1e2b6	-0.08118632479625884
140	0xbfc1d7e7ce0f0cd4	-0.1394014125963624
141	0xbfc390d01dd375ab	-0.15285684067104674
142	0xbfa76b317e4d3502	-0.045739695232081004
143	0xbfc364c595089d48	-0.15151281144174278
144	0xbfc3437a083cab21	-0.1504967251033458
145	0xbf87d31d41487749	-0.011633137278348154
146	0x3f87d5c56daabdb3	0.011638204964895182
147	0x3f848bd08f40b64b	0.010032300349929765
148	0x3f961a7046be922e	0.021585230176827057
149	0x3fb698592e198eb7	0.08826215148433901
150	0x3fc31fc870363c85	0.14940743903250478
151	0x3f7845101c6a6bdb	0.005925238545979784
152	0xbfc606da4156b776	-0.1720841235195924
153	0xbfc89e68fbf70ac3	-0.19233429244021324
154	0xbfbdaa63d01b50b5	-0.11588119345407473
155	0x3fa112da6f69ed9e	0.033346963978114305
156	0x3f9346cb569a9ea0	0.018824746285331373
157	0xbfb1ef28de1fb982	-0.0700555364889848
158	0xbfc8da458d7fcb1b	-0.19416112336292532
159	0xbfc947a7bf1bc423	-0.1974992449900422
160	0xbfbd53fcbb65a385	-0.11456279349444116
161	0xbfba5d7fe0b5f063	-0.10298918949223572
162	0xbfb828c92d9348f8	-0.09437234270743378
163	0xbf9c8e29a877b9ce	-0.027886057765437226
164	0xbfc53ab3f57d1cf5	-0.1658539723086744
165	0x3f72461f29efcb75	0.004461404546406968
166	0x3fba8b50d4d33954	0.10368828960347304
167	0xbfb70d46a7ebab8b	-0.09004632568000497
168	0xbfa4752ebcc75246	-0.03995653204370746
169	0xbfad6c570dbc5f06	-0.05746719401048321
170	0xbfb331dcbd1f70e7	-0.07497958771950018
171	0xbf9c1414dafdc9d4	-0.027420354715511255
172	0x3f8091c82a466cf7	0.008090556898244545
173	0xbfbadf5e8dce6429	-0.10497084581437889
174	0xbfbd6a4f2a8ed6c2	-0.11490340031636051
175	0xbf842fe4239a1dd1	-0.009856970154273366
176	0xbfb0b96f06e64cc6	-0.06532949369857297
177	0xbfb8bc1d2bb0c1f9	-0.09662039105092636
178	0xbfa0aa648b639589	-0.03254999352956662
179	0xbf89a72e78651b01	-0.012525904702341164
180	0x3f8510b88b4286c3	0.010285798787950445
181	0x3f9f05e94852c382	0.030295987166656164
182	0x3f980fbd202fa4ec	0.023497538651928204
183	0x3f66912f06aa64c0	0.0027547758557600888
184	0x3faf04b549342d81	0.06058279532052336
185	0x3fb7e7796200eeed	0.09337576525370724
186	0x3fb4670a31158c45	0.07969726274818452
187	0x3fab87f748c5238e	0.05377171290690007
188	0x3f99c293509a3c4f	0.02515630893190873
189	0x3f8d5eed775675d2	0.014341216282271061
190	0xbf73c39ec7b931e6	-0.004825229868924618
191	0xbf9e1f4285b05a4a	-0.02941612187359003
192	0xbfb2bbe6f6b4e8cf	-0.07317966006386033
193	0x3f99f39e389e5497	0.025343391614644686
194	0x3fa5998b68ab8d25	0.04218707707129913
195	0xbfa78d51efb710ae	-0.046000061523529964
196	0xbfab907e158fdf56	-0.053836765415268203
197	0xbfc18dc10577c2bd	-0.13713848845465818
198	0xbfaff03a3d115b6e	-0.062379665331426234
199	0xbfb09f1fec7b866b	-0.06492805026530284
200	0xbfbfa060cce09f57	-0.12354092599764264
201	0xbfbffacc3e3b2181	-0.1249206211024383
202	0xbfbe1b6c39cd12e2	-0.11760593806418343
203	0xbfb8cace28add9fd	-0.09684456341879151
204	0xbfc27efee5f0808e	-0.14450060107720158
205	0xbfc19adc9aa8eacb	-0.13753850509404794
206	0xbfaf619debefc57d	-0.061291632700782174
207	0xbfaee33299baec3e	-0.06032713057126003
208	0x3fa9ac8d4b465cba	0.05014459174997783
209	0x3fb4ac54df2d93cb	0.080754570471597
210	0x3fb40615e5490687	0.07821785781654898
211	0x3f7b0b0cc9ac3731	0.006602334930688334
212	0x3f77c52df7aa133a	0.005803279457386174
213	0x3f9053d96eb5d56a	0.015944859869212825
214	0x3f7024acf0aab01e	0.003941226527484102
215	0xbfbb2f99e95053a2	-0.1061950869191848
216	0xbfcaa1e435ada1dd	-0.20806553479202608
217	0xbfd007b840eae431	-0.2504711755714793
218	0xbfcf751979686eac	-0.2457610934078408
219	0xbfc31026f07e4dd7	-0.14893042319145763
220	0xbfb9b84fb1091a93	-0.10046861717374105
221	0xbfbaf96bf5738f14	-0.10536837332216137
222	0xbfc5aabc8dd694fd	-0.16927296567624942
223	0xbfc97728607b6fd5	-0.19894890509647092
224	0xbfc4650c9c2cdba8	-0.15933377862685671
225	0xbfb51368f232aebc	-0.08232742226635542
226	0xbf9a6ecd345f50d6	-0.025813299485734152
227	0xbfc5df9196696bac	-0.1708852753098119
228	0xbfcab21defe93cd7	-0.20856069769295146
229	0xbfb94f6d75f059fd	-0.09886821870200176
230	0x3faee7b2411da1ad	0.060361452530574546
231	0x3fa0b2b774111fda	0.032613499563524065
232	0x3fa00a509c192f9d	0.03132869630334698
233	0x3f6f6c3e4175f83b	0.003835794060875334
234	0xbfc09f1dade450b4	-0.1298558329659777
235	0xbfb454a23fc326cf	-0.0794164090795235
236	0xbfade612458b578b	-0.058395930280013074
237	0xbfa0ffff2abbb6a8	-0.033203100172483346
238	0xbfa8a77d4bd7eab5	-0.04815284300635395
239	0xbfbbd9a56be6b036	-0.10878976711563912
240	0xbfc062dc12cff208	-0.12801695746010489
241	0xbfc566ce7bc4995a	-0.16719990771634735
242	0xbfbcef234804fa8f	-0.11302395351683912
243	0xbfb3b9705df25bb7	-0.07704832357045076
244	0xbfb3b64dd35e493c	-0.0770004883800412
245	0x3f7589ebdc8d405d	0.005258485159018359
246	0xbf932954305666e1	-0.018712344599044143
247	0xbfb8c7533ff32b8e	-0.09679146109844636
248	0x3f940cdf286c643a	0.01958035167908554
249	0x3f6f2a0d41053905	0.003804231535617155
250	0xbf09f2ce77f26522	-4.949276535022087e-05
251	0x3f75f83c386b950f	0.005363688693909254
252	0xbfb4d9b394a0bd2b	-0.08144686106310377
253	0xbfa9b9428c3c24e3	-0.05024154626705426
254	0xbfb667da1eedc13c	-0.0875221562871546
255	0xbfb68ee84895e699	-0.08811809322460319

b1 f8 [16, 1]
0	0x3ffac4c8ccf92d4e	1.6730430609485043
1	0xc0119e5c18986e10	-4.404648193648896
2	0xbff147d289db46a9	-1.0800347695371022
3	0xc0313938d0f62092	-17.223523197259574
4	0xc007a71374ba0d02	-2.956580078056164
5	0x3fe0a6fe016aba1e	0.52038479115237
6	0x3ffe5db9fa855f16	1.8978824411369195
7	0x40118bd482b51de2	4.386552851013649
8	0x3fb7bc5635257ebd	0.09271754071732637
9	0xc00d33713d4142a3	-3.650118330530249
10	0xc006cdd092a3badc	-2.85049547731556
11	0x400c2bb628ae1cea	3.5213435342917494
12	0xc011061048042b7e	-4.255921483282576
13	0xc009a20d40943fd0	-3.2041268391840063
14	0xc00bff8428a99478	-3.4997637917281814
15	0x4024f72460a2a2f7	10.482699413159464

W2 f8 [4, 16]
0	0xc00d729a00ee1c17	-3.680957801119358
1	0x401b8b023d76874d	6.885750732764632
2	0x400a399088cf91c1	3.2781077087731494
3	0x3fee4b9e951b7b4c	0.9467308914425785
4	0x4008ec199fecab4c	3.1152832502461134
5	0x400ac834922aef04	3.347756521163207
6	0x40046903e8c005a2	2.5512769874191727
7	0xc017eaaaae533433	-5.979166721180309
8	0xc020fcae9f686650	-8.493519765371417
9	0xc009330fcc656972	-3.1499324768494086
10	0xbff2012e977038a7	-1.1252885737954246
11	0xc0117fbf254eb985	-4.374752600603078
12	0x401fb205e8972277	7.923850664352918
13	0xbfe8685d2d561748	-0.7627397428011387
14	0xbffd27cfbee634f4	-1.8222196061136033
15	0xc013bc3957cd29f6	-4.933812496087276
16	0x40053056d0de6efa	2.648603088176853
17	0x401cc07f9571d5a8	7.187986693451798
18	0x40129792cc7cce13	4.648020930402271
19	0xc00d9285c7fd6032	-3.696544229907908
20	0x4012a14bc4894ac8	4.657515593413969
21	0xbff22113278c1ff5	-1.133074907762418
22	0xc01b098e204ec628	-6.75933123093413
23	0xc0171b8023cf8cb0	-5.776856002371616
24	0xc003b5007e7eebb8	-2.463379848717036
25	0x3fed099675c3325d	0.9074203777359561
26	0xc005111345562faf	-2.633337537472435
27	0x3ff913730bb3124f	1.5672483880054136
28	0xbffd07b59a3f87f9	-1.8143821740454753
29	0xc010201168ef9e2d	-4.031316413521876
30	0xc00afdc899010d61	-3.3739177659460187
31	0x40080c3ddc5dfe12	3.0059773651298736
32	0xbffefd6a44720e97	-1.936868922582027
33	0xbfe708deb8141d47	-0.7198327632221798
34	0xc001a237cec651e4	-2.204208007266276
35	0x400244d373f3bbc8	2.283606439471871
36	0x4010b0f856dbab0f	4.17282233920811
37	0xc00bfec02a099b55	-3.4993899616414788
38	0xc015afe60c506997	-5.421776001365649
39	0xc00c10c82ef25ae5	-3.5081943195067304
40	0xc0183f2302f94183	-6.0616569962152225
41	0x4010bcd0824c588c	4.184389148626121
42	0x401b2a6f50ff7e5e	6.791440263361066
43	0xc00de7fcfb0b0199	-3.7382754910215223
44	0xc005b2b022c12217	-2.71225001480003
45	0x3ff5d40e2daf310f	1.364271334127867
46	0x3ff7e24f69ede325	1.492751516138193
47	0xc013324d609abbb8	-4.79912329620759
48	0xbfe936d0c7719d3b	-0.7879413504969429
49	0xc01daf931afe9dd3	-7.421459600248869
50	0xc011a242e6ad9532	-4.408458332390454
51	0xc0064ffb2341c9f9	-2.7890532259418674
52	0xc01ff48e48a20300	-7.988824019325648
53	0x3ff1ed05ada9e711	1.120366743444212
54	0x400b73851775639e	3.431406195897991
55	0x401aee773fb5ba4a	6.732876773325708
56	0x40160bca4a5043ca	5.511513863705611
57	0xc00707853982760c	-2.8786720745981764
58	0xbfea9883eff81eb4	-0.8311176001452254
59	0x3ff6dd1721315c18	1.428977136287136
60	0xc009bdeb16b8a29a	-3.2177335524650745
61	0x40101f950cc996e8	4.030842017940564
62	0x4010b7a5551a05d7	4.179341630662257
63	0x4006398fd909d8ec	2.7781063991670774

b2 f8 [4, 1]
0	0xc0216893c916664b	-8.704252513870548
1	0xc0049841db0222e3	-2.5743443594004574
2	0xc01912fc3316d00a	-6.2685401899980295
3	0x4016d50d3c0c555e	5.708058298352027
