model_test.npz (npz, 525926 bytes, 4 tensors)

W1 f8 [16, 4096]
0	0x3f947f5deb656590	0.020017116062580664
1	0x3f7377e73d8f7a74	0.004753020556533916
2	0x3f7b4d0239c01c04	0.006665238088323203
3	0xbf722dc0a58e08d9	-0.004438164259115329
4	0x3f9a4f028391f3b5	0.02569202354469598
5	0x3f6d9f3c92e5b3ca	0.0036159689981815945
6	0x3fa63c8440ea8b4d	0.0434304551356691
7	0x3f9a18b5a063e8bc	0.025484884180493536
8	0x3f98abe45d244e47	0.024093216118741514
9	0x3f8baef93e4853a4	0.013517329419338094
10	0x3f9d7749f827dd3e	0.02877536370394051
11	0xbf7cb556e4aae475	-0.00700887625378598
12	0xbf83d13ea8cafa59	-0.009676446462774256
13	0xbf9b4b43ad269251	-0.026654298251417356
14	0xbf920e4da46631ec	-0.01763268772042352
15	0xbfa132304092db87	-0.03358603275540078
16	0xbf87bf011a056d7f	-0.011594780546764437
17	0xbf9ec3ded7c95ada	-0.030044061585011807
18	0xbf97c760fd3510e4	-0.023221507505938002
19	0xbf61d6106f937ce4	-0.0021772690785010086
20	0xbf891d7ceec5d18c	-0.012263275181546594
21	0x3f96a8cec3ad6ef6	0.02212832516975901
22	0x3f9ab165239d46b3	0.026067333506324796
23	0x3f9486e48a9f3ffc	0.020045824967212397
24	0x3f9680c60a1ed161	0.021975607269000167
25	0x3f433cfe31219438	0.0005871049090840968
26	0x3f775bb40e60f019	0.005702689499283786
27	0xbf84e4bf26fabea0	-0.010201924683627184
28	0x3f64d7e8e58061d4	0.002544360042531427
29	0x3f62e8ee3c1994da	0.0023083355925331674
30	0xbf9230845fe54e9b	-0.017763203003893762
31	0xbf83b7acf8ce8abc	-0.00962767729089841
32	0xbf7e469700a39b9f	-0.007391538480283537
33	0xbf7c7e1d748d1705	-0.006956210193328043
34	0xbf44b9a3bdb8d320	-0.0006324815289589815
35	0x3f88ab6b0a698cfe	0.012045704131372844
36	0xbf7f4ffdf8762f3e	-0.0076446457600345945
37	0xbf6d71b3d2a48a20	-0.0035942566074862597
38	0x3f96e13680936bf9	0.02234349403157052
39	0xbf67a06b8b917640	-0.0028841114513358523
40	0xbf8d2c984b3c2c50	-0.014245214267722656
41	0xbf837fd51f0c97b8	-0.009521164903684695
42	0xbf8acf84daee57d0	-0.013091123515362485
43	0x3f52ce78cb3ea498	0.0011478595379037834
44	0xbf8d63954d71d695	-0.01435009615509423
45	0xbf7cc6b6c213d9a8	-0.007025445841682666
46	0x3f63c5ecf6d95e80	0.0024137142379848098
47	0x3f7f9a87850a4384	0.007715730069905006
48	0xbf8ed240017735fc	-0.015049457592705366
49	0xbf938ed9443b72cf	-0.019099612035335774
50	0xbf75a551e011228f	-0.0052846143963242295
51	0xbf31217999073e90	-0.0002613946790263966
52	0xbf81922175da1e8f	-0.008579503449495788
53	0xbf371445725dfc5c	-0.0003521604106637205
54	0xbf818897954a8e1d	-0.00856131004667931
55	0xbf807326af6bcece	-0.008032133320262782
56	0xbf6a91fef6a3b832	-0.0032434444193461193
57	0x3f676f34890d6a2a	0.002860643966795769
58	0xbf842f6f6d9d9171	-0.009856100590419388
59	0xbf6162c4cb8bda45	-0.0021222919134474016
60	0xbf908d3a3dd4abb7	-0.016163740180825416
61	0x3f6a027b06f0105a	0.003175010955148533
62	0xbf8834ef30d740b6	-0.011819714239124184
63	0xbf90b2cabfe47fc5	-0.016307037317460322
64	0x3f76957322bb6c3e	0.005513620136947726
65	0x3f73011f541c2398	0.004639742257276057
66	0x3f8f00740eafd945	0.015137583444794553
67	0x3f90b4b0a9b45c54	0.016314277990286577
68	0x3fa0e15dbb143639	0.03296940716436975
69	0xbf6fef0c88eee841	-0.0038981671163727254
70	0xbf5b8972499df681	-0.001680719002677661
71	0x3f86c446edef4ddf	0.011116556297486589
72	0x3f7fe9cabdec86ed	0.00779132076311993
73	0x3f862ec46d0b1ea1	0.010831389024488049
74	0x3f8ca233364587ac	0.013981247037637555
75	0xbf92c806e34567c4	-0.018341167089012136
76	0xbf95752f120ac66e	-0.02095483348484211
77	0xbf95e67cf53d07e9	-0.02138705488983553
78	0xbf939a0cc7f76d42	-0.019142341332423436
79	0xbf85a8cf203ac768	-0.010575884028501029
80	0xbf9f1351c0ce3798	-0.030347134964862826
81	0xbfa4e48d8b3d3c50	-0.040806220290158124
82	0xbf82b3d89784e462	-0.009132091640468857
83	0xbf0468d17639fd40	-3.892792917969479e-05
84	0xbf8aa973100e5889	-0.01301851170300618
85	0xbf7506f8a3577b58	-0.0051336014198274035
86	0xbf763146f2948237	-0.005418088091830023
87	0x3f8e60ba554fb3cc	0.014832931259627723
88	0x3f602e46b905ef64	0.001975191240658635
89	0x3f6fcc39dfd87515	0.0038815622672375796
90	0x3f8285b3c3a327fa	0.009044079215886559
91	0x3f82abada46fdc99	0.009116512852399604
92	0x3f5847140ab9366a	0.00148179013457952
93	0xbf8beb6619df4023	-0.013632581390908232
94	0xbf8c672853d94b34	-0.013868632372724933
95	0xbf9e3dee5964afe7	-0.029533123212942682
96	0xbfa1322c4eccc840	-0.033585915202266836
97	0xbf96a8358281d6f5	-0.022126041498686317
98	0xbf940293e8a17eb8	-0.019541083406123788
99	0x3f7f29cc92fea590	0.0076082221202481565
100	0xbf85e757370246f6	-0.010695153585661182
101	0x3f8adee483101bef	0.013120446443293658
102	0x3f7c70684a25e21e	0.0069431375326236815
103	0xbf71cf8ffb397280	-0.004348337580804995
104	0xbf996156b5555469	-0.024785380189616655
105	0x3f6a36417bd265cd	0.0031996993044003164
106	0x3f8653321323321f	0.01090087052252736
107	0xbf90f8be71f02991	-0.016573882774574115
108	0xbf86348e96164d35	-0.010842431979460979
109	0xbf87b41e75066abe	-0.011574018427201845
110	0xbf917422c07d9a5e	-0.0170445852267228
111	0x3f7765e6c12ec2b2	0.005712415108903345
112	0xbf72f01672526c55	-0.004623496705927617
113	0xbf9cea34db62edfa	-0.028237176790510056
114	0xbf8de4cb1708544d	-0.014596544876477458
115	0xbf95a01918229f2e	-0.021118537996385793
116	0x3f6e83cf947c9abe	0.003724961690653699
117	0xbf62ed4d38ab7b6d	-0.002310419867498073
118	0x3f94326fff5adfa4	0.019723653755789564
119	0x3f70cb01dea509d5	0.004099852851427295
120	0xbf533cde3e34fca4	-0.0011741800634153332
121	0x3f11706006c80ca0	6.652437304670517e-05
122	0x3f7c7466d470ea72	0.006946946791738117
123	0x3f87f3011e729147	0.011693962804493764
124	0xbfa04b741c2be6df	-0.03182566493883398
125	0xbf67ffa7f5f3e4eb	-0.0029295235141232243
126	0xbf622decb7243f2e	-0.0022191642139047984
127	0xbf87f17ec43f1bc6	-0.011691084255188399
128	0xbf8cae41bec8ab4b	-0.014004243502389399
129	0x3f8bf96ee9d9af4f	0.013659349929376367
130	0xbf634c76bc3ee2d6	-0.002355796723318408
131	0xbf857a3d03a569bb	-0.01048705737473631
132	0xbf899cd5658e37d4	-0.012506167566041095
133	0xbf6c7a48385624bd	-0.003476277403653498
134	0x3f7f9b37c7b8cc9c	0.007716386691345136
135	0xbf85d4daf56635f4	-0.010659895528784859
136	0xbf606b8cb1c58c92	-0.0020044086397078076
137	0xbf9c336c39868284	-0.027539912234376476
138	0xbf61638c95dc83ca	-0.002122664051868094
139	0xbf8dd75946529fe2	-0.014570901354389269
140	0xbf9fdb1bd93dfbe6	-0.031109271177680052
141	0xbfa2c891a869bf43	-0.036686469848858504
142	0xbf8721910daa7890	-0.011294491986799465
143	0xbf9022431278c625	-0.015755699160029963
144	0xbf9f6f97bffe52f4	-0.03069913014731447
145	0xbf930c42cf6434e0	-0.018601459415596433
146	0xbf877f0d9f937371	-0.011472803528187222
147	0xbf799348f418d608	-0.00624397752249229
148	0xbf7e6cdba0ae2382	-0.007428033752952314
149	0x3f7d702cc6e48adb	0.007187056455480979
150	0x3f61720a2dc6dbb1	0.0021295737080566303
151	0xbfa342ce0cd29cfc	-0.03761905581023403
152	0xbf9bfc32074c07c9	-0.027329236693738133
153	0xbf911b7ac8f4c1ae	-0.016706388965020906
154	0xbf97a6f003270fa8	-0.023097753708284735
155	0xbf91ac9acb68e7ed	-0.01725999704851937
156	0xbf8aa090e4615c55	-0.013001567811597928
157	0xbf972ce076125f82	-0.022632128912476464
158	0xbfa2fa6f581f2f4c	-0.03706691694932704
159	0xbfa97cbb4777657a	-0.04977975127594454
160	0xbfa0c72b0f7cd9ff	-0.03276953281458716
161	0xbfa0294d2a0de6d2	-0.031565104850370354
162	0xbf985903776bbc94	-0.02377705971133233
163	0xbf948f5c35499c51	-0.020078125717557353
164	0xbf9921a91bf00d16	-0.024542467432195535
165	0xbf8cfb7a239ecbfc	-0.014151529514355936
166	0x3f84688fa59208aa	0.009965059509572011
167	0xbf93c52e0ee05925	-0.019306869180661174
168	0x3f40aa95b302e5a8	0.00050861653837513
169	0xbfa35fd27d7373b0	-0.03784044057258684
170	0xbf9cfee4ffd6e6e3	-0.028316095462037515
171	0xbf10837a27b744c0	-6.2994318731374e-05
172	0x3f90e196e436f1b7	0.016485555342784255
173	0xbf904937944f2987	-0.015904301096989506
174	0xbf82c0e9a5534d57	-0.009157014234381462
175	0xbf66af9140795bae	-0.002769263930342678
176	0x3f749da52e995da8	0.005033154718680967
177	0xbf976a6417717a96	-0.02286678689085394
178	0xbf93bbc6ee959a55	-0.019271000206027306
179	0xbf9a8f46c87f88c8	-0.02593718146079807
180	0xbf948afb1ef4a288	-0.020061420215969267
181	0x3f58bc57488517e9	0.0015097477317609304
182	0x3f7b334c91debd34	0.0066407195098883605
183	0x3f748b6a8c4a1d78	0.005015770152233194
184	0xbf7716a232bfa7c4	-0.005636819445479394
185	0xbf59e58db67d6078	-0.0015806087412411334
186	0x3f50ab1da45f66ae	0.0010173596833652865
187	0xbf8aabbc52fc98c6	-0.013022872240594185
188	0xbf94341e4c586a74	-0.019730065736533978
189	0xbf97a94aa56fb00a	-0.023106733653477853
190	0xbf8a2852c98164aa	-0.012772223257501675
191	0xbf928bffcfbadfd6	-0.018112179807502425
192	0xbf3096adceab856c	-0.0002531217893829349
193	0xbf51395f6f4863b8	-0.0010512763957477422
194	0xbf753f8f897a8fc0	-0.005187569324025476
195	0xbf9fdd5d367f2cfe	-0.03111787457582426
196	0xbf5be292d0470dba	-0.0017019685484321715
197	0xbf775f2726d3ac68	-0.005705979286385256
198	0x3f88a593c47226a0	0.012034563477090032
199	0x3f7669fc58f0395a	0.005472169620601564
200	0xbf951f82be3eb2b6	-0.020628016339901044
201	0xbf8fb93421215868	-0.015489966641478684
202	0xbf9925a86a49927a	-0.024557715880649124
203	0xbf6f34df599fbd29	-0.0038093912416951215
204	0xbfa616a5e1b98898	-0.04314154034069978
205	0xbfa3a5ae0293109c	-0.03837341100145972
206	0xbf9e65a3b7e7bf57	-0.029684599017797932
207	0xbf98bc83199d7134	-0.02415661662904363
208	0xbf856096bb9fcc6a	-0.01043813476642282
209	0x3f98181f0b0cc250	0.023529515313557348
210	0x3f5d422701450214	0.0017857914836697563
211	0xbf8cc6af64c120cc	-0.014050836813240507
212	0x3f8c58f01b00c8d8	0.013841510604923377
213	0xbf7c4875839c8169	-0.006905039824943373
214	0xbf9884921906914c	-0.023943217065281616
215	0xbf9cc48bcbab565a	-0.028093513780581204
216	0xbfa233b2f2d99838	-0.03555068220593721
217	0xbfaafe65f7668370	-0.05272215504670086
218	0xbf9b6e9f73ef97a6	-0.026789180232206576
219	0xbfa4718ca6212ea8	-0.03992881324719849
220	0xbf9a3a73fa9200c8	-0.02561360566005602
221	0xbfa1436d0a7592de	-0.033717544104353556
222	0xbfa0a8a7c0d0c653	-0.03253673771577028
223	0xbfa76c6091e814ed	-0.04574872761808444
224	0xbfaaf93d54e39798	-0.052682797062330866
225	0xbf91e3cbd9c302c0	-0.017470536390421953
226	0xbfa73ece088059a0	-0.04540103772903881
227	0xbfa7829887d78186	-0.04591824205613464
228	0xbfa7600bba1bda15	-0.045654646366461694
229	0xbfa391270c24c17f	-0.038216800911302855
230	0xbf84417e5b288b1a	-0.009890544087345843
231	0xbf85f5acd46598a7	-0.010722494346463952
232	0xbf80d77041893cb4	-0.008223416328432577
233	0xbf80e2941e249dca	-0.008244664354221682
234	0xbfa567613dca84a8	-0.0418043506554196
235	0xbfa46c69f8a566c1	-0.03988963279944136
236	0xbfa4afb9a496105d	-0.04040317663296442
237	0xbf98718062bce9f5	-0.023870473886953254
238	0xbf99066af1b18ec8	-0.024438544275098534
239	0xbf895b83aecfe51b	-0.012381581089345553
240	0xbf98a9d483829224	-0.024085350538955677
241	0xbf95ad7c6a2abf65	-0.021169609050672906
242	0xbf9636fd5e4686e8	-0.021694144133681897
243	0xbfa2b15a3ff1a529	-0.03650934248509891
244	0xbf96c30c4827d2c9	-0.022228423980737575
245	0x3f5707e931897c6e	0.0014056947021783522
246	0x3f7c0792c46fd09b	0.006843159971129743
247	0xbf928df5444516b7	-0.018119652072775518
248	0x3f64ac5e839bdb77	0.002523598287435143
249	0xbf9b469ae0fa6aa4	-0.026636524182871782
250	0xbf9120f9d7371b2e	-0.016727355728814057
251	0xbf93e15992cf1bd3	-0.019414329133521434
252	0xbfab92446f05bb03	-0.05385030608419152
253	0xbf845ae6c6ce675a	-0.009939005796514234
254	0xbf9c4cff25f2968c	-0.027637468997133527
255	0xbfa2b0a62ac45369	-0.03650397560173852

b1 f8 [16, 1]
0	0x3fde99c38c0c7f54	0.47813500095980044
1	0xbfef6d659e159965	-0.9821041190705669
2	0xbfd1f66342ea9673	-0.28066331419754603
3	0xbfec9392a35c1a37	-0.8930142584438902
4	0xbfec1331d088757b	-0.8773430893813122
5	0xbfb75e7155b96683	-0.09128483145596004
6	0x3fe155e9b258f595	0.541737411818462
7	0x3feeae05487d10d4	0.9587427535812147
8	0x3faa114d83e3ec48	0.05091325983990963
9	0xbfe0350a48f40844	-0.5064746308201014
10	0xbfe1ef108c73d120	-0.560432695695031
11	0x3fe96599592fba94	0.7936522237703962
12	0xbfe893eabd258f90	-0.7680562681457435
13	0xbfdbaebd3363a10c	-0.43254022615885
14	0xbfe52ab074946dd7	-0.6614610936116446
15	0x3ff35a0621f96048	1.2094785048593781

W2 f8 [4, 16]
0	0xbff541e131336cf1	-1.3285839006337563
1	0x3ff467db66a19900	1.2753557213814588
2	0x3fe62406d468a368	0.6918977879150647
3	0x3fdc4c46d4968eb3	0.4421555591636476
4	0x3fef7e0310c242d7	0.9841323211022325
5	0x3fec3779a54c2d80	0.8817718723743582
6	0x3fcd28ba9f9b1a44	0.2278054503751311
7	0xbff62116e5bf1b9f	-1.3830784773324252
8	0xbfff6b3d067aa2b9	-1.963681245144626
9	0xbfd875883b13e0bf	-0.38217359322835515
10	0xbfdcead2a110e20c	-0.4518324444684658
11	0xbffd3c228b81b623	-1.8271813821296596
12	0x3ff0431e801b1eeb	1.0163865093363096
13	0x3fd78e2f8645bc54	0.3680533229116396
14	0xbfb8714f449f6d1b	-0.0954789679084808
15	0xbff36ad667e4709a	-1.213583379582849
16	0x3fe540f6bc68efe6	0.6641801528817239
17	0x3fe7c69457170897	0.7429906559921332
18	0x3fe0aa5694f2dd59	0.5207932385591604
19	0xbff159880da1cc9f	-1.0843582661152948
20	0x3fe798bd05d9d44e	0.737394820621043
21	0xbfe94c64f137d74f	-0.7905754767695984
22	0xbfe7f0eb267a4862	-0.7481590034024175
23	0xbfcf6ef02319e76a	-0.24557306016850627
24	0xbfe10f1a6541eb0f	-0.5330936410603914
25	0x3fb1359c3a8cdda5	0.06722427777719149
26	0xbfd13262bf126d11	-0.26870030078289725
27	0x3f91fb9bceafe6bd	0.0175613732244304
28	0x3f9cccd1e8bd2bea	0.028125076132066974
29	0xbff1cf45fab3edf1	-1.1131038468437249
30	0xbfe63018291d299f	-0.6933708956724337
31	0xbfc842ec8cf53cdd	-0.18954235918724907
32	0xbfea2e60f6e63561	-0.8181614706278816
33	0x3fdca2125913eadc	0.4473920698070921
34	0xbfde3582010af0e3	-0.47201585866765877
35	0x3fd847e0f5565234	0.3793871303435339
36	0x3fd7a06a0e497505	0.3691659106751362
37	0xbfedd036bba24242	-0.9316667237017742
38	0xbff8072e3e7d71a2	-1.5017530861870019
39	0xbff5d054cdc59d99	-1.363362125202775
40	0xbff4dead68becb5d	-1.304364594613353
41	0x3fdbf8687d0c7868	0.4370366307429152
42	0x3fec207e594f240f	0.8789664978331774
43	0xbff983a46d6d2a0f	-1.5946392321080827
44	0xbfc3dde6e4866ff8	-0.15520940931753535
45	0x3fe7343e6faf3694	0.7251274281822639
46	0x3fe3d2b9da28636c	0.6194733868497742
47	0xbff2c3ee2e06d6c1	-1.1728345678251773
48	0xbfa30c66e20395cc	-0.03720399388275161
49	0xc0006c85bda9ef30	-2.0529894654736367
50	0xbff0bfb7e7110058	-1.0468062425643634
51	0xbfeb97e216a2ca5d	-0.8622904245479038
52	0xbffebc5cc9edaac7	-1.9209869277789708
53	0x3fddb7dc44f8b022	0.46434694991580916
54	0x3ff5387156a92ed4	1.3262799630346551
55	0x3ff6f0955335bb6f	1.4337361574541452
56	0x3ffe69470001c440	1.9007024765271723
57	0xbfe7fff81e1405d2	-0.7499962413277734
58	0xbfeb83e67772642d	-0.8598511059709658
59	0x3fe3ed888b69f014	0.6227457735944903
60	0xbff4f25627170ef1	-1.309164192863076
61	0x3fe80cca12b877bf	0.7515611997257493
62	0xbfad004d9c3b078f	-0.05664293796645758
63	0x3ffd310527480bce	1.8244678053313126

b2 f8 [4, 1]
0	0xc0015eec0c73e540	-2.171348664557314
1	0xbfe47f0614c5c296	-0.6405058294022463
2	0xbff81f72790dcf1f	-1.5076775292081448
3	0x4000c219fb0ddfc0	2.0947761167153374
